Model: "model_1"
_________________________________________________________________
Layer (type)                 Output Shape              Param #   
=================================================================
input_1 (InputLayer)         (None, 150, 150, 3)       0         
_________________________________________________________________
conv2d_1 (Conv2D)            (None, 148, 148, 4)       112       
_________________________________________________________________
max_pooling2d_1 (MaxPooling2 (None, 74, 74, 4)         0         
_________________________________________________________________
conv2d_2 (Conv2D)            (None, 72, 72, 5)         185       
_________________________________________________________________
max_pooling2d_2 (MaxPooling2 (None, 36, 36, 5)         0         
_________________________________________________________________
conv2d_3 (Conv2D)            (None, 34, 34, 10)        460       
_________________________________________________________________
max_pooling2d_3 (MaxPooling2 (None, 17, 17, 10)        0         
_________________________________________________________________
flatten_1 (Flatten)          (None, 2890)              0         
_________________________________________________________________
dense_1 (Dense)              (None, 20)                57820     
_________________________________________________________________
dense_2 (Dense)              (None, 1)                 21        
=================================================================
Total params: 58,598
Trainable params: 58,598
Non-trainable params: 0
_________________________________________________________________
Found 41 images belonging to 2 classes.
Found 41 images belonging to 2 classes.
Epoch 1/15
 - 1s - loss: 0.8475 - acc: 0.4211 - val_loss: 0.6730 - val_acc: 0.5500
Epoch 2/15
 - 0s - loss: 0.7118 - acc: 0.5500 - val_loss: 0.5747 - val_acc: 0.8000
…
